model/model_chatbot.tflite (tflite, 73092 bytes, 6 tensors)

sequential_1/dense_5/BiasAdd/ReadVariableOp f4 [14]
1.43421 0.77254343 0.30182537 -0.05187278 0.3238453 0.34868598 -0.08989514 0.23328121
-0.36269727 -0.82379055 -0.64171946 -0.63792855 -0.5607961 -0.2456927
00000000: 3194 b73f 68c5 453f db88 9a3e 8d78 54bd
00000010: 0dcf a53e f886 b23e f11a b8bd 45e1 6e3e
00000020: 75b3 b9be f0e3 52bf ba47 24bf 494f 23bf
00000030: 5590 0fbf de96 7bbe

sequential_1/dense_4/BiasAdd/ReadVariableOp f4 [64]
-0.11867978 0.07528392 -0.11738487 0.26034707 0.07511864 0.038010396 -0.027304357 -0.21259888
-0.06716846 -0.067491315 0.5226964 -0.0025129288 0.0102175595 -0.2018098 -0.023850862 0.0055488045
-0.16135275 0.1224765 0.0669929 -0.074226476 -0.042983092 0.2817749 0.021434393 -0.1600395
0.05005155 0.3799778 0.42201382 0.18033856 0.0057388125 0.47314632 -0.17115451 -0.09656528
0.24349649 -0.16761191 -0.01610284 0.43944725 0.014983211 0.015381158 -0.10420848 0.0063300207
-0.1994393 0.3126176 0.25173166 -0.04769101 0.062246874 0.28456748 -0.09992088 -0.0021592074
0.027872259 0.3296066 0.31148586 0.3287753 0.31149167 0.45580703 -0.23177977 -0.082863905
-0.18235023 0.098154485 0.012656606 0.028474212 0.18629028 0.08040219 0.38394025 0.36702916
00000000: 620e f3bd 752e 9a3d 7b67 f0bd 364c 853e
00000010: cdd7 993d cab0 1b3d 63ad dfbc 85b3 59be
00000020: 9e8f 89bd e338 8abd 6ecf 053f f3af 24bb
00000030: 8d67 273c 3aa7 4ebe e262 c3bc bfd2 b53b
00000040: a839 25be f6d4 fa3d 9333 893d 0d04 98bd
00000050: 0a0f 30bd cd44 903e 2e97 af3c 65e1 23be
00000060: db02 4d3d 738c c23e 3212 d83e acaa 383e
00000070: a60c bc3b 3c40 f23e 2143 2fbe 04c4 c5bd
00000080: 2557 793e 75a2 2bbe 1aea 83bc 3bff e03e
00000090: 247c 753c 4101 7c3c 416b d5bd 106c cf3b
000000a0: d139 4cbe 6a0f a03e f9e2 803e a657 43bd
000000b0: 94f6 7e3d d4b2 913e 51a3 ccbd 7d81 0dbb
000000c0: 5d54 e43c 32c2 a83e 137b 9f3e 3c55 a83e
000000d0: d67b 9f3e 8a5f e93e ad57 6dbe 8db4 a9bd
000000e0: 05ba 3abe 3805 c93d a75d 4f3c c042 e93c
000000f0: e1c2 3e3e e7a9 a43d d193 c43e 3feb bb3e

sequential_1/dense_3/BiasAdd/ReadVariableOp f4 [128]
-0.019011311 0.24611242 0.16563776 -0.01969148 -0.05615846 0.075117156 -0.008930694 -0.05050051
-0.007358251 0.16887958 0.10865552 0.25057584 0.028159881 -0.08563485 -0.07118268 -0.07227912
0.06913504 -0.053269673 -0.018601857 -0.12870452 -0.043899007 -0.022094503 0.010225533 -0.013571322
0.017168796 0.010981476 0.079502076 -0.003907279 0.02350103 -0.0332229 0.016540859 0.0946091
-0.03451198 -0.008132597 -0.0042385757 0.018527996 -0.07637923 -0.042472128 -0.019607885 0.008470313
-0.033974003 -0.007194708 0.040608946 -0.079771236 0.06419417 0.06954673 0.055964064 -0.0027608166
0.10374517 0.0013656 0.03739626 -0.05031799 0.049926713 0.14646725 -0.024622658 -0.018611351
0.15002716 -0.004383585 0.1410777 0.13989612 -0.052977264 0.24284446 0.21404675 -0.07219877
-0.005959352 -0.006217894 -0.013379092 -0.09807387 0.012168441 0.107812 -0.08169488 0.0808341
-0.020702142 -0.0153330015 -0.1477184 -0.0002555147 -0.007832586 0.02587249 0.11146094 -0.05630267
0.010441503 0.1443818 0.09561225 -0.018375073 -0.022167094 -0.012767 -0.019694783 -0.0775844
0.020840434 0.0890707 -0.04592641 -0.0285202 0.13796778 -0.10509698 -0.04224517 -0.011827807
0.16131228 0.17228884 -0.011139 0.102639794 0.016949354 -0.015674837 0.22414781 0.07280346
-0.080712095 -0.017727131 0.02081232 -0.016535407 -0.03905288 0.027398553 -0.075579405 0.100047894
0.20096889 0.007731472 -0.023437703 0.0033272821 0.08232954 -0.044952236 0.0026222027 0.06614944
-0.06564931 0.18495153 -0.049360983 0.004691668 0.099175535 0.06182552 0.1597892 -0.045222394
00000000: 9cbd 9bbc e504 7c3e f29c 293e 0750 a1bc
00000010: 6a06 66bd 06d7 993d 0c52 12bc 9fd9 4ebd
00000020: 7c1d f1bb c5ee 2c3e c986 de3d 7a4b 803e
00000030: 8daf e63c 5361 afbd 3ac8 91bd 1307 94bd
00000040: ac96 8d3d 4d31 5abd ec62 98bc 1ecb 03be
00000050: 72cf 33bd 88ff b4bc fe88 273c 405a 5ebc
00000060: 93a5 8c3c a6eb 333c fcd1 a23d a208 80bb
00000070: 3b85 c03c bc14 08bd b280 873c 6ac2 c13d
00000080: 6f5c 0dbd 963e 05bc c0e3 8abb 06c8 973c
00000090: b76c 9cbd 41f7 2dbd b7a0 a0bc 11c7 0a3c
000000a0: 5328 0bbd 96c1 ebbb 9155 263d 1a5f a3bd
000000b0: 3c78 833d 846e 8e3d 933a 653d d1ee 34bb
000000c0: 5978 d43d effd b23a d22c 193d 3d1a 4ebd
000000d0: f47f 4c3d 83fb 153e 75b5 c9bc d576 98bc
000000e0: b8a0 193e 2da4 8fbb ac76 103e ee40 0f3e
000000f0: b0fe 58bd 38ac 783e 122f 5b3e f3dc 93bd
00000100: ab46 c3bb 7abf cbbb fb33 5bbc f4da c8bd
00000110: 245e 473c 8acc dc3d a54f a7bd 598c a53d
00000120: 8a97 a9bc 4537 7bbc 7e43 17be 9af6 85b9
00000130: 3f54 00bc 8bf2 d33c a245 e43d a19d 66bd
00000140: d612 2b3c d3d8 133e 5bd0 c33d 5287 96bc
00000150: c497 b5bc ae2c 51bc f456 a1bc 92e4 9ebd
00000160: 8fb9 aa3c b36a b63d 551d 3cbd 32a3 e9bc
00000170: 6d47 0d3e 163d d7bd 4509 2dbd 6bc9 41bc
00000180: 0c2f 253e 7c6c 303e 5a80 36bc d034 d23d
00000190: 5fd9 8a3c 8468 80bc 0187 653e fb19 953d
000001a0: 624c a5bd 7d38 91bc 997e aa3c 4375 87bc
000001b0: eaf5 1fbd ee72 e03c 60c9 9abd e9e5 cc3d
000001c0: caca 4d3e 4a58 fd3b 6d00 c0bc 880e 5a3b
000001d0: 649c a83d d61f 38bd 43d9 2b3b 5c79 873d
000001e0: 2573 86bd ef63 3d3e be2e 4abd 90bc 993b
000001f0: 8b1c cb3d c23c 7d3d c89f 233e 1e3b 39bd

sequential_1/dense_3/MatMul f4 [128, 66]
-0.06736738 -0.05622286 0.108383924 0.02844596 -0.17000538 -0.14067003 -0.09995613 0.05313254
-0.049642757 0.017210305 -0.08408692 0.024681898 -0.004185001 -0.1351873 -0.06591479 0.1327676
0.05677916 -0.027602136 0.20959964 -0.12973163 -0.075607695 0.06345457 0.0067161536 -0.14627351
0.1743429 0.16480984 0.12680513 -0.17472374 -0.04252711 0.20987807 0.08701184 0.11547019
-0.15055108 0.0011182874 -0.09598671 -0.039652407 0.028809464 0.09830284 -0.057373427 -0.123450816
-0.09362795 -0.15764885 -0.14487685 0.012248682 0.114858754 0.022923693 0.08814874 -0.21125545
-0.048369057 0.057574876 -0.12082476 0.05811134 -0.071882926 0.020420576 -0.014944485 0.0012438595
-0.09840308 0.021106048 -0.13451673 -0.059956253 0.07622254 0.071573704 -0.07360453 0.13502729
-0.09178943 0.09485674 0.11442593 -0.20347741 -0.15418494 0.15661927 0.13109648 -0.0051650177
-0.030538008 -0.051498853 -0.23253788 -0.23880334 -0.141451 -0.017986432 0.17381155 0.0048436373
-0.21563697 -0.073473796 0.11793032 0.22180866 -0.113593705 0.06802508 0.17506787 0.13927111
0.01867021 0.12515742 -0.14870031 -0.1625199 -0.15656662 -0.14269444 0.1193779 0.057656094
-0.24088594 0.4024937 0.6555143 -0.010430844 0.029533563 -0.051032454 -0.22956909 -0.048691392
0.08751398 -0.27177063 0.0113934735 0.10184235 -0.10269645 -0.24191631 0.17565997 0.14879772
0.14416243 -0.1441325 0.08193715 0.26596135 0.022415847 -0.10506699 -0.08316875 -0.23297969
0.021258831 -0.17486936 -0.15586635 -0.20654139 -0.06689882 -0.21801864 0.010105312 -0.07677969
0.18790826 0.03666409 -0.0011587441 -0.1841288 -0.14950287 -0.17133951 0.17262767 -0.016097613
-0.22944176 0.16317467 0.10682179 -0.09196823 -0.14983916 -0.2158611 0.12772563 -0.14026284
-0.19926867 0.13954005 -0.09203483 0.03741625 0.123924166 0.13387583 0.12595524 0.1254469
0.16052109 -0.15248169 0.18164562 0.09413888 -0.0074920505 0.06649339 -0.045557816 0.25750828
-0.15747976 -0.04770606 -0.0067804977 0.020302914 -0.17413823 -0.17172335 -0.18692186 0.031188997
-0.13063332 -0.1384826 -0.09677921 -0.1895208 0.12316988 -0.022762178 0.016630769 -0.14232482
0.18114981 -0.12889338 0.25747734 -0.07617751 -0.020161115 -0.1793383 0.03780377 0.098178506
0.03328277 -0.17790996 0.05222485 -0.11001315 -0.061916552 0.020033704 0.023481313 -0.12393494
0.16772133 0.011535943 0.7748477 -0.19389679 -0.20472386 -0.070899464 0.13081673 0.16448833
-0.109209776 0.0014535313 -0.17236538 0.032239515 -0.15677328 -0.14505327 0.009827411 0.008901623
-0.043046933 -0.11804837 -0.16509642 -0.10558255 0.048354264 -0.050672922 -0.09389512 0.20522754
-0.06345607 0.106308885 0.18713214 0.011534348 0.14739268 0.09042197 -0.04945022 0.19554722
-0.05376238 0.2977028 -0.11229575 0.096106976 -0.20619847 0.3069177 -0.09459088 0.25800484
0.074180275 0.16433182 0.5059474 0.26463705 -0.121793106 0.2452646 0.033638638 -0.11507541
0.040631305 -0.04467144 -0.012577625 -0.014193401 -0.09622784 0.035416517 0.03372501 -0.14388219
0.12236832 -0.09484104 -0.064270206 0.0015211072 0.043365687 -0.0733331 0.27383468 0.36159372
00000000: e9f7 89bd f149 66bd 64f8 dd3d 8007 e93c
00000010: e415 2ebe ce0b 10be cdb5 ccbd 82a1 593d
00000020: 3456 4bbd a0fc 8c3c c335 acbd b131 ca3c
00000030: 5522 89bb 8a6e 0abe 55fe 86bd 3bf4 073e
00000040: 4491 683d e01d e2bc 4aa1 563e 5ed8 04be
00000050: 35d8 9abd 78f4 813d 2e13 dc3b b9c8 15be
00000060: f286 323e e9c3 283e 34d9 013e c8ea 32be
00000070: e830 2ebd 47ea 563e 4333 b23d a37b ec3d
00000080: 102a 1abe 8093 923a ae94 c4bd 906a 22bd
00000090: d301 ec3c 0053 c93d 6600 6bbd c8d3 fcbd
000000a0: 03c0 bfbd b36e 21be 995a 14be b2ae 483c
000000b0: 113b eb3d 78ca bb3c 5487 b43d 5953 58be
000000c0: a21e 46bd a2d3 6b3d f972 f7bd 2806 6e3d
000000d0: 5b37 93bd 0d49 a73c b7d9 74bc 0009 a33a
000000e0: 8e87 c9bd 97e6 ac3c c1be 09be b094 75bd
000000f0: 901a 9c3d 3c95 923d f9bd 96bd 9844 0a3e
00000100: 19fc bbbd 4044 c23d 2458 ea3d 625c 50be
00000110: a8e2 1dbe cd60 203e 283e 063e 4f3f a9bb
00000120: d82a fabc 76f0 52bd 691e 6ebe dd88 74be
00000130: 88d8 10be 4858 93bc a8fb 313e 60b7 9e3b
00000140: f0cf 5cbe 6e79 96bd 7485 f13d cf21 633e
00000150: d1a3 e8bd bc50 8b3d fe44 333e 169d 0e3e
00000160: 45f2 983c 4429 003e e544 18be 9e6b 26be
00000170: 0053 20be 7e1e 12be 677c f43d cc28 6c3d
00000180: ceaa 76be a713 ce3e c9cf 273f 21e6 2abc
00000190: 5ff0 f13c 6807 51bd 2914 6bbe a070 47bd
000001a0: 883a b33d 8525 8bbe b1ab 3a3c b992 d03d
000001b0: 8452 d2bd e9b8 77be 35e0 333e 6e5e 183e
000001c0: 519f 133e 7897 13be aace a73d 162c 883e
000001d0: 70a1 b73c 5d2d d7bd 6154 aabd 3a92 6ebe
000001e0: 0027 ae3c f410 33be 6e9b 1fbe 967f 53be
000001f0: 4002 89bd 4740 5fbe c090 253c ac3e 9dbd
00000200: 066b 403e 162d 163d 00e1 97ba 438c 3cbe
00000210: 4817 19be a073 2fbe 4fc5 303e 24df 83bc
00000220: c8f2 6abe 4317 273e 62c5 da3d d759 bcbd
00000230: 706f 19be b10a 5dbe 82ca 023e 10a1 0fbe
00000240: 160d 4cbe 96e3 0e3e c27c bcbd c841 193d
00000250: f4cb fd3d bf16 093e 69fa 003e 2775 003e
00000260: a45f 243e 2924 1cbe 4f01 3a3e e3cb c03d
00000270: e07f f5bb b02d 883d d59a 3abd 20d8 833e
00000280: 6042 21be 6e67 43bd f02e debb 4c52 a63c
00000290: 4b51 32be 3fd8 2fbe 7268 3fbe 1180 ff3c
000002a0: bec4 05be 62ce 0dbe 2e34 c6bd be11 42be
000002b0: 7d40 fc3d bf77 babc 403d 883c 99bd 11be
000002c0: 567f 393e a0fc 03be 12d4 833e f402 9cbd
000002d0: ec28 a5bc 76a4 37be 20d8 1a3d d011 c93d
000002e0: 8453 083d 072e 36be b9e9 553d 934e e1bd
000002f0: 369c 7dbd b91d a43c e25b c03c 9ad1 fdbd
00000300: 24bf 2b3e 4001 3d3c 6b5c 463f e18c 46be
00000310: 22a3 51be bd33 91bd d2f4 053e a16f 283e
00000320: 60a9 dfbd 6b84 be3a 8d80 30be 950d 043d
00000330: 2d89 20be d888 14be 2603 213c 1dd8 113c
00000340: fb51 30bd 58c3 f1bd 090f 29be aa3b d8bd
00000350: 1f0f 463d 698e 4fbd 164c c0bd 2b27 523e
00000360: 42f5 81bd 79b8 d93d 919f 3f3e 90fa 3c3c
00000370: 1bee 163e 272f b93d 508c 4abd 883d 483e
00000380: f135 5cbd 806c 983e 50fb e5bd bcd3 c43d
00000390: b125 53be 5124 9d3e ddb8 c1bd 3619 843e
000003a0: d4eb 973d 9a46 283e c585 013f 827e 873e
000003b0: aa6e f9bd a526 7b3e abc8 093d a8ac ebbd
000003c0: 036d 263d 66f9 36bd 6212 4ebc 708b 68bc
000003d0: 1a13 c5bd e910 113d 3c23 0a3d da55 13be
000003e0: 3e9c fa3d 053c c2bd 19a0 83bd e35f c73a
000003f0: 38a0 313d aa2f 96bd 0f34 8c3e d022 b93e

sequential_1/dense_4/MatMul f4 [64, 128]
0.1278679 -0.011051277 0.0356051 0.30082288 0.15913785 -0.016116772 0.41644955 0.053550765
0.07687237 -0.021480003 -0.14827806 0.16548468 0.22199611 0.093605824 -0.102619894 0.17749828
-0.21301673 0.06847686 -0.053107433 -0.06382771 0.12719281 0.11059551 -0.021023294 0.096906394
-0.1220976 -0.09903047 -0.01242324 -0.15302564 0.0902939 0.14907968 0.067284524 -0.025888478
0.27766582 -0.07700469 -0.039588604 0.19053961 -0.044721767 -0.02090024 -0.09748932 0.06386596
-0.096370615 -0.12576723 0.08350776 0.290599 -0.19194013 0.3214768 0.26275802 0.08680777
-0.059728198 0.09406743 0.14277957 0.40574276 0.27743518 0.19863698 0.18327236 -0.09071373
0.2874504 -0.24365702 -0.28784326 -0.16521962 0.19696592 -0.11138542 -0.0769858 0.23269483
-0.04056776 0.11254258 0.09808437 -0.13131976 0.12641807 0.039713003 0.5068809 0.19045465
0.26835376 -0.16230808 0.080715664 0.081784815 -0.117151484 -0.005192697 -0.07516801 -0.069987744
-0.0032370004 -0.16279992 -0.18480355 -0.010380859 0.0028571384 0.08640135 -0.008440777 -0.1818505
-0.08591007 -0.1332683 -0.019584125 0.22536418 0.023676924 -0.22974393 0.1422094 0.06717694
-0.07445555 -0.050397463 -0.185455 -0.09035248 0.12740439 0.019367997 -0.12026446 -0.10231955
0.19294854 0.08899508 -0.016037453 -0.1409413 0.100067265 0.34586212 0.003983977 -0.057584632
-0.062162586 0.36250195 0.18535376 0.20879376 0.1141165 0.08942358 0.285286 -0.20620188
0.028994095 -0.06520212 0.13303569 0.25209123 0.12182381 0.38180113 0.21341826 0.0037335558
0.10274631 0.056698263 -0.026607314 0.31962478 0.027391607 -0.12621221 0.15418245 -0.09879044
-0.06889076 0.13674834 -0.05057112 0.33542272 -0.1851085 -0.26831412 -0.29390538 0.1780539
-0.17819278 -0.11207999 -0.022684759 -0.2144045 0.04227941 0.009385524 -0.1336993 0.14379178
-0.11623705 -0.1357609 -0.08935108 -0.003636722 0.16675328 0.09827485 0.038265202 0.06419432
0.14269094 -0.17926216 -0.14925009 -0.088857666 -0.24284643 -0.13725446 -0.24826227 -0.11877121
0.002834063 -0.19132209 0.02880405 0.08072772 -0.037735734 -0.16717988 0.20700288 -0.256884
-0.023262832 -0.030913515 -0.07416421 0.17181146 0.25241667 0.14935653 0.16742033 -0.080216065
0.123489216 -0.21844484 -0.020170895 0.19667448 0.016919935 -0.08400769 0.4376161 0.17476474
0.13646437 -0.049323145 0.12656172 0.0137508325 -0.22012204 0.095338516 0.3477592 0.28739116
0.34021753 -0.09779849 -0.07244452 -0.09718118 -0.19844586 -0.039203085 0.13422741 -0.09910762
-0.12723787 -0.15112065 0.03309442 0.05661617 0.09326872 -0.14413527 -0.18570119 -0.13222016
0.07044406 0.015056445 0.19566429 0.2695305 -0.08153362 0.034158528 -0.12908562 -0.17187387
-0.050749622 -0.10211304 -0.21317536 -0.010443537 -0.06125599 -0.21422979 0.09270611 0.061411556
0.27229577 0.030980038 -0.060911953 -0.20423125 0.13453479 -0.17733414 -0.13054371 -0.06812455
0.2455186 -0.06623097 0.15444042 0.018376473 0.022031542 0.10099368 -0.021154892 -0.15320253
-0.19993253 0.32121283 -0.03387035 -0.06230065 0.41361484 0.022724882 -0.1544773 0.06767671
00000000: ceef 023e 6a10 35bc a7d6 113d 7505 9a3e
00000010: 08f5 223e 5207 84bc e038 d53e 0c58 5b3d
00000020: 436f 9d3d d5f6 afbc 34d6 17be d174 293e
00000030: f352 633e 69b4 bf3d 612a d2bd 1cc2 353e
00000040: 0f21 5abe 993d 8c3d 2e87 59bd 1ab8 82bd
00000050: d53e 023e e67f e23d 0b39 acbc dc76 c63d
00000060: 4e0e fabd 7dd0 cabd d88a 4bbc c1b2 1cbe
00000070: 02ec b83d 58a8 183e 78cc 893d 1314 d4bc
00000080: 372a 8e3e a3b4 9dbd a927 22bd d11c 433e
00000090: 2c2e 37bd fb36 abbc 7ba8 c7bd 28cc 823d
000000a0: f55d c5bd 20c9 00be 1e06 ab3d 64c9 943e
000000b0: f48b 44be 9b98 a43e 3888 863e 46c8 b13d
000000c0: 8ea5 74bd 6da6 c03d cf34 123e 84bd cf3e
000000d0: fc0b 8e3e 7e67 4b3e c0ab 3b3e 1fc8 b9bd
000000e0: b32c 933e 3a81 79be 3160 93be 552f 29be
000000f0: 6fb1 493e 0a1e e4bd bbaa 9dbd 8e47 6e3e
00000100: 612a 26bd b97c e63d 75e0 c83d b078 06be
00000110: bd73 013e 1aaa 223d f2c2 013f 8b06 433e
00000120: aa65 893e 1734 26be 414e a53d cc7e a73d
00000130: 1eed efbd 8027 aabb b0f1 99bd bc55 8fbd
00000140: db23 54bb 06b5 26be 243d 3dbe 7a14 2abc
00000150: d43e 3b3b 31f3 b03d 2f4b 0abc 0437 3abe
00000160: 9ef1 afbd 7c77 08be e36e a0bc dec5 663e
00000170: 1cf6 c13c fe41 6bbe 579f 113e 1094 893d
00000180: 277c 98bd 926d 4ebd eae7 3dbe b90a b9bd
00000190: 4c76 023e a2a9 9e3c 374d f6bd ea8c d1bd
000001a0: 4d94 453e 0d43 b63d fa60 83bc eb52 10be
000001b0: 11f0 cc3d d714 b13e 058c 823b dddd 6bbd
000001c0: 329e 7ebd db99 b93e 60cd 3d3e 08ce 553e
000001d0: e9b5 e93d b623 b73d 0211 923e 9626 53be
000001e0: 0685 ed3c b088 85bd 823a 083e 1a12 813e
000001f0: c37e f93d 707b c33e 518a 5a3e acae 743b
00000200: a86c d23d 703c 683d 95f7 d9bc dca5 a33e
00000210: 5d64 e03c c63d 01be 01e2 1d3e a452 cabd
00000220: 9916 8dbd c207 0c3e aa23 4fbd 87bc ab3e
00000230: 158d 3dbe 7860 89be c47a 96be c353 363e
00000240: 2b78 36be 328a e5bd 63d5 b9bc da8c 5bbe
00000250: 2d2d 2d3d bec5 193c 78e8 08be 273e 133e
00000260: b10d eebd e804 0bbe b3fd b6bd 1256 6ebb
00000270: 5fc1 2a3e 5344 c93d f9bb 1c3d 5078 833d
00000280: 931d 123e 8090 37be 04d5 18be 02fb b5bd
00000290: bcac 78be 6f8c 0cbe 7738 7ebe 523e f3bd
000002a0: b0bb 393b f0e9 43be 79f6 eb3c 9354 a53d
000002b0: c990 1abd 3431 2bbe 90f8 533e 4d86 83be
000002c0: b291 bebc 573e fdbc 68e3 97bd 58ef 2f3e
000002d0: c23c 813e ebf0 183e 3c70 2b3e 5248 a4bd
000002e0: eae7 fc3d 01b0 5fbe 6f3d a5bc 0965 493e
000002f0: ad9b 8a3c 390c acbd 380f e03e 87f5 323e
00000300: 51bd 0b3e 1107 4abd 6599 013e 2c4b 613c
00000310: ac67 61be d740 c33d 7e0d b23e ef24 933e
00000320: fe30 ae3e 934a c8bd cb5d 94bd ed06 c7bd
00000330: 6435 4bbe 6a93 20bd e972 093e f0f8 cabd
00000340: a54a 02be 5fbf 1abe 048e 073d 5be6 673d
00000350: ac03 bf3d 3298 13be 7428 3ebe b964 07be
00000360: fa44 903d 4faf 763c 385c 483e e7ff 893e
00000370: 19fb a6bd d0e9 0b3d 052f 04be b4ff 2fbe
00000380: d6de 4fbd a420 d1bd a44a 5abe 5e1b 2bbc
00000390: 90e7 7abd 0e5f 5bbe b3dc bd3d af8a 7b3d
000003a0: 5a6a 8b3e d9c9 fd3c d07e 79bd ff21 51be
000003b0: 7dc3 093e 1597 35be 40ad 05be e284 8bbd
000003c0: 3a69 7b3e 1aa4 87bd a125 1e3e 428a 963c
000003d0: 7e7b b43c c6d5 ce3d 064d adbc 20e1 1cbe
000003e0: 1dbb 4cbe 0276 a43e a3bb 0abd f72e 7fbd
000003f0: 53c5 d33e 8829 ba3c 4c2f 1ebe 169a 8a3d

sequential_1/dense_5/MatMul f4 [14, 64]
-0.5961328 0.12383241 -0.41946492 0.32332584 -0.4494972 0.056485407 -0.1901402 -0.5015944
-0.14979707 -0.2393272 0.6505479 -0.115762435 -0.3309085 -0.20929408 -0.1726103 -0.41750664
-0.42261258 -0.079891354 -0.6192491 -0.38443255 0.119527765 0.53846437 -0.36850682 -0.1531964
-0.5878327 0.45168146 0.35418934 0.18430394 -0.18862903 0.30816948 -0.6717247 -0.44520363
0.41793504 -0.113217615 0.15329884 0.60147506 -0.2263239 0.12833025 -0.1856473 -0.38601917
-0.5773192 0.31000903 0.13691336 0.24066263 -0.4612882 0.44121218 -0.31622443 -0.35577282
-0.5368837 0.6020425 0.12671348 0.22623068 0.5840965 0.5288336 -0.2628506 -0.40684703
-0.29822555 0.11210139 -0.5837939 -0.46481642 0.24529177 -0.008176025 0.47392893 0.34601757
-0.5827804 -0.5202805 0.6559869 0.23691452 -0.47046545 0.94275576 0.056845933 0.47666493
-0.28238997 -0.08250915 -0.77941847 0.42861673 -0.13620782 -0.19313295 -0.21104534 -0.20695706
-0.24111268 0.110021584 0.35744515 -0.06899897 -0.033169314 -0.5303664 -0.33088642 -0.14486417
-0.53657216 -0.67648554 0.5332636 -0.058037236 -0.43145943 0.66319686 0.58780366 -0.08439184
-0.7204727 -0.19975527 -0.09547369 0.7741398 -0.29751977 -0.80904716 0.71232563 -0.43928215
0.04153249 -0.6647122 -0.112194106 -0.33581167 0.4622648 0.30637917 -0.27073377 -0.1699727
-0.31226292 -0.27540827 0.6801127 0.1203981 0.40924323 -0.21760067 -0.25202125 -0.5208205
-0.8109042 -0.0048928177 -0.036835186 -0.21440405 -0.56772274 0.77137697 0.6201762 0.5264416
0.50367135 -0.14099818 -0.113491535 -0.34789026 -0.48664635 -0.35840964 0.21354169 -0.39681223
-0.009198282 -0.22529039 0.5118878 -0.51877666 -0.005405054 -0.10506215 0.0026878444 -0.27499926
-0.38565758 0.54062986 0.20276207 -0.2333989 -0.27306393 -0.2826471 0.5877349 -0.025557334
-0.027909981 -0.1063196 0.22471447 -0.085825324 0.5508461 0.51335233 -0.44417584 0.51818585
-0.3420911 -0.03778631 0.23365916 -0.38819784 -0.19907036 -0.15148614 -0.1978668 -0.45413285
-0.12515007 0.5183724 0.4327298 -0.30719322 -0.27212626 -0.36372408 -0.3521625 -0.3657714
0.6496223 0.3645905 0.24240442 0.09651752 -0.098596 0.029653257 -0.19098179 0.5611846
0.32319632 -0.10251891 0.058611304 0.74363613 -0.2684818 -0.4214571 -0.48398778 0.1741564
0.6377891 0.63780534 -0.27367756 -0.2324319 0.31603438 -0.28823912 -0.36820987 0.72556305
0.04626829 -0.02762714 0.05598859 0.5560889 -0.09580636 -0.44311213 0.50147766 -0.09216318
-0.5544418 0.27660194 0.6846049 -0.03370759 -0.13811234 -0.25840658 -0.4508931 0.0036824595
0.32467055 0.05873752 -0.34739658 -0.47885418 -0.10733324 0.4308083 -0.58384734 -0.47557887
-0.3689458 -0.16989985 -0.24642305 0.49164113 -0.23985344 0.5817781 -0.45379135 -0.5282018
0.2132445 -0.5781272 -0.54380643 0.65573597 -0.38571864 0.7873436 -0.33426812 -0.4672438
-0.48684844 0.17136423 -0.6175691 0.6954627 0.0519452 0.29901513 0.10939087 -0.4831486
0.4941053 0.11844906 0.5739085 -0.2901319 0.21930061 0.051252678 0.66461587 -0.78224343
00000000: 299c 18bf d99b fd3d 1bc4 d6be f78a a53e
00000010: 7f24 e6be 3e5d 673d 1db4 42be 7e68 00bf
00000020: 6764 19be 3112 75be 4f8a 263f db14 edbd
00000030: d76c a9be 3051 56be c1c0 30be 6ec3 d5be
00000040: ad60 d8be 149e a3bd 1c87 1ebf 58d4 c4be
00000050: f9ca f43d cdd8 093f edac bcbe 84df 1cbe
00000060: 347c 16bf cb42 e73e 4e58 b53e 2cba 3c3e
00000070: f827 41be 64c8 9d3e 26f6 2bbf bbf1 e3be
00000080: 95fb d53e a3de e7bd 5ffa 1c3e 45fa 193f
00000090: 74c1 67be 0169 033e 531a 3ebe 4ea4 c5be
000000a0: 31cb 13bf 81b9 9e3e 0433 0c3e 4470 763e
000000b0: f82d ecbe 90e6 e13e 2be8 a1be db27 b6be
000000c0: 3671 09bf 751f 1a3f 2ec1 013e 04a9 673e
000000d0: 5987 153f a461 073f 5b94 86be 414e d0be
000000e0: 05b1 98be 6a95 e53d 8473 15bf 6bfc edbe
000000f0: c42d 7b3e bcf4 05bc d0a6 f23e 3729 b13e
00000100: 1931 15bf 1a31 05bf c2ee 273f b899 723e
00000110: d9e0 f0be 7158 713f 48d7 683d 6d0d f43e
00000120: 6b95 90be 8ffa a8bd f887 47bf a773 db3e
00000130: 107a 0bbe a5c4 45be 451c 58be 8dec 53be
00000140: 3ee6 76be ff52 e13d 0d03 b73e 554f 8dbd
00000150: 8cdc 07bd 18c6 07bf f269 a9be 4657 14be
00000160: cb5c 09bf 282e 2dbf f783 083f 74b8 6dbd
00000170: 40e8 dcbe 45c7 293f 4d7a 163f a1d5 acbd
00000180: e670 38bf a58c 4cbe b687 c3bd 072e 463f
00000190: 8354 98be b71d 4fbf f95a 363f 97e9 e0be
000001a0: f91d 2a3d 942a 2abf 06c6 e5bd 82ef abbe
000001b0: f9ad ec3e bbdd 9c3e 9e9d 8abe 530d 2ebe
000001c0: ede0 9fbe 5002 8dbe de1b 2e3f 4793 f63d
000001d0: 5488 d13e b6d2 5ebe ee08 81be 7e54 05bf
000001e0: 6b97 4fbf ee53 a0bb 7ee0 16bd bc8c 5bbe
000001f0: 4756 11bf f678 453f dec3 1e3f e0c4 063f
00000200: 9bf0 003f d461 10be 406e e8bd ac1e b2be
00000210: b629 f9be 7881 b7be acaa 5a3e f92a cbbe
00000220: 64b4 16bc 86b2 66be 140b 033f 8cce 04bf
00000230: e11c b1bb d32a d7bd 8c26 303b b4cc 8cbe
00000240: e974 c5be b866 0a3f dca0 4f3e 1f00 6fbe
00000250: 09cf 8bbe 1fb7 90be cb75 163f 9d5d d1bc
00000260: 79a3 e4bc 17be d9bd 8d1b 663e 30c5 afbd
00000270: 4004 0d3f 0f6b 033f 046b e3be d4a7 043f
00000280: 9126 afbe d1c5 1abd 5944 6f3e dec1 c6be
00000290: 1ad9 4bbe 2f1f 1bbe 989d 4abe 1a84 e8be
000002a0: 5727 00be 0eb4 043f c38e dd3e 6e48 9dbe
000002b0: 2254 8bbe 0b3a babe a54e b4be 6446 bbbe
000002c0: a64d 263f 9bab ba3e dd38 783e faaa c53d
000002d0: b3ec c9bd 63eb f23c bb90 43be cba9 0f3f
000002e0: fd79 a53e 6ff5 d1bd 6812 703d f05e 3e3f
000002f0: 7276 89be 3ac9 d7be 3fcd f7be 0e56 323e
00000300: 2546 233f 3647 233f 771f 8cbe a102 6ebe
00000310: 42cf a13e 1494 93be 0186 bcbe 80be 393f
00000320: d283 3d3d 5052 e2bc 4b54 653d d85b 0e3f
00000330: 2036 c4bd 98df e2be d760 003f 0dc0 bcbd
00000340: e6ef 0dbf c59e 8d3e 4442 2f3f f810 0abd
00000350: 526d 0dbe de4d 84be 76db e6be 6b55 713b
00000360: 383b a63e c196 703d f7dd b1be 602c f5be
00000370: 88d1 dbbd e892 dc3e 0577 15bf 137f f3be
00000380: 77e6 bcbe 3afa 2dbe 5356 7cbe 63b8 fb3e
00000390: 249c 75be 69ef 143f 5757 e8be 3c38 07bf
000003a0: c45c 5a3e 2500 14bf e636 0bbf 50de 273f
000003b0: ea7c c5be 5a8f 493f 3125 abbe 943a efbe
000003c0: 3344 f9be 1b7a 2f3e 0219 1ebf d809 323f
000003d0: 7dc4 543d 8318 993e 5208 e03d 415f f7be
000003e0: 5ffb fc3e 6c95 f23d abeb 123f 2b8c 94be
000003f0: 5790 603e 54ee 513d 4424 2a3f 1b41 48bf
